…
'memory_used_decode': <function VAE.__init__.<locals>.<lambda> at 0x7f0fa27f37e0>, 'downscale_ratio': 8, 'upscale_ratio': 8, 'latent_channels': 4, 'latent_dim': 2, 'output_channels': 3, 'process_input': <function VAE.__init__.<locals>.<lambda> at 0x7f0fa27f3880>, 'process_output': <function VAE.__init__.<locals>.<lambda> at 0x7f0fa27f3920>, 'working_dtypes': [torch.bfloat16, torch.float32], 'disable_offload': False, 'not_video': False, 'downscale_index_formula': None, 'upscale_index_formula': None, 'extra_1d_channel': None, 'first_stage_model': AutoencoderKL(
  (encoder): Encoder(
    (conv_in): Conv2d(3, 128, kernel_size=(3, 3), stride=(1, 1), padding=(1, 1))
    (down): ModuleList(
      (0): Module(
        (block): ModuleList(
          (0-1): 2 x ResnetBlock(
            (swish): SiLU(inplace=True)
            (norm1): GroupNorm(32, 128, eps=1e-06, affine=True)
            (conv1): Conv2d(128, 128, kernel_size=(3, 3), stride=(1, 1), padding=(1, 1))
            (norm2): GroupNorm(32, 128, eps=1e-06, affine=True)
            (dropout): Dropout(p=0.0, inplace=True)
            (conv2): Conv2d(128, 128, kernel_size=(3, 3), stride=(1, 1), padding=(1, 1))
          )
        )
        (attn): ModuleList()
        (downsample): Downsample(
          (conv): Conv2d(128, 128, kernel_size=(3, 3), stride=(2, 2))
        )
      )
      (1): Module(
        (block): ModuleList(
          (0): ResnetBlock(
            (swish): SiLU(inplace=True)
            (norm1): GroupNorm(32, 128, eps=1e-06, affine=True)
            (conv1): Conv2d(128, 256, kernel_size=(3, 3), stride=(1, 1), padding=(1, 1))
            (norm2): GroupNorm(32, 256, eps=1e-06, affine=True)
            (dropout): Dropout(p=0.0, inplace=True)
            (conv2): Conv2d(256, 256, kernel_size=(3, 3), stride=(1, 1), padding=(1, 1))
            (nin_shortcut): Conv2d(128, 256, kernel_size=(1, 1), stride=(1, 1))
          )
          (1): ResnetBlock(
            (swish): SiLU(inplace=True)
            (norm1): GroupNorm(32, 256, eps=1e-06, affine=True)
            (conv1): Conv2d(256, 256, kernel_size=(3, 3), stride=(1, 1), padding=(1, 1))
            (norm2): GroupNorm(32, 256, eps=1e-06, affine=True)
            (dropout): Dropout(p=0.0, inplace=True)
            (conv2): Conv2d(256, 256, kernel_size=(3, 3), stride=(1, 1), padding=(1, 1))
          )
        )
        (attn): ModuleList()
        (downsample): Downsample(
          (conv): Conv2d(256, 256, kernel_size=(3, 3), stride=(2, 2))
        )
      )
      (2): Module(
        (block): ModuleList(
          (0): ResnetBlock(
            (swish): SiLU(inplace=True)
            (norm1): GroupNorm(32, 256, eps=1e-06, affine=True)
            (conv1): Conv2d(256, 512, kernel_size=(3, 3), stride=(1, 1), padding=(1, 1))
            (norm2): GroupNorm(32, 512, eps=1e-06, affine=True)
            (dropout): Dropout(p=0.0, inplace=True)
            (conv2): Conv2d(512, 512, kernel_size=(3, 3), stride=(1, 1), padding=(1, 1))
            (nin_shortcut): Conv2d(256, 512, kernel_size=(1, 1), stride=(1, 1))
          )
          (1): ResnetBlock(
            (swish): SiLU(inplace=True)
            (norm1): GroupNorm(32, 512, eps=1e-06, affine=True)
            (conv1): Conv2d(512, 512, kernel_size=(3, 3), stride=(1, 1), padding=(1, 1))
            (norm2): GroupNorm(32, 512, eps=1e-06, affine=True)
            (dropout): Dropout(p=0.0, inplace=True)
            (conv2): Conv2d(512, 512, kernel_size=(3, 3), stride=(1, 1), padding=(1, 1))
          )
        )
        (attn): ModuleList()
        (downsample): Downsample(
          (conv): Conv2d(512, 512, kernel_size=(3, 3), stride=(2, 2))
        )
      )
      (3): Module(
        (block): ModuleList(
          (0-1): 2 x ResnetBlock(
            (swish): SiLU(inplace=True)
            (norm1): GroupNorm(32, 512, eps=1e-06, affine=True)
            (conv1): Conv2d(512, 512, kernel_size=(3, 3), stride=(1, 1), padding=(1, 1))
            (norm2): GroupNorm(32, 512, eps=1e-06, affine=True)
            (dropout): Dropout(p=0.0, inplace=True)
            (conv2): Conv2d(512, 512, kernel_size=(3, 3), stride=(1, 1), padding=(1, 1))
          )
        )
        (attn): ModuleList()
      )
    )
    (mid): Module(
      (block_1): ResnetBlock(
        (swish): SiLU(inplace=True)
        (norm1): GroupNorm(32, 512, eps=1e-06, affine=True)
        (conv1): Conv2d(512, 512, kernel_size=(3, 3), stride=(1, 1), padding=(1, 1))
        (norm2): GroupNorm(32, 512, eps=1e-06, affine=True)
        (dropout): Dropout(p=0.0, inplace=True)
        (conv2): Conv2d(512, 512, kernel_size=(3, 3), stride=(1, 1), padding=(1, 1))
      )
      (attn_1): AttnBlock(
        (norm): GroupNorm(32, 512, eps=1e-06, affine=True)
        (q): Conv2d(512, 512, kernel_size=(1, 1), stride=(1, 1))
        (k): Conv2d(512, 512, kernel_size=(1, 1), stride=(1, 1))
        (v): Conv2d(512, 512, kernel_size=(1, 1), stride=(1, 1))
        (proj_out): Conv2d(512, 512, kernel_size=(1, 1), stride=(1, 1))
      )
      (block_2): ResnetBlock(
        (swish): SiLU(inplace=True)
        (norm1): GroupNorm(32, 512, eps=1e-06, affine=True)
        (conv1): Conv2d(512, 512, kernel_size=(3, 3), stride=(1, 1), padding=(1, 1))
        (norm2): GroupNorm(32, 512, eps=1e-06, affine=True)
        (dropout): Dropout(p=0.0, inplace=True)
        (conv2): Conv2d(512, 512, kernel_size=(3, 3), stride=(1, 1), padding=(1, 1))
      )
    )
    (norm_out): GroupNorm(32, 512, eps=1e-06, affine=True)
    (conv_out): Conv2d(512, 8, kernel_size=(3, 3), stride=(1, 1), padding=(1, 1))
  )
  (decoder): Decoder(
    (conv_in): Conv2d(4, 512, kernel_size=(3, 3), stride=(1, 1), padding=(1, 1))
    (mid): Module(
      (block_1): ResnetBlock(
        (swish): SiLU(inplace=True)
        (norm1): GroupNorm(32, 512, eps=1e-06, affine=True)
        (conv1): Conv2d(512, 512, kernel_size=(3, 3), stride=(1, 1), padding=(1, 1))
        (norm2): GroupNorm(32, 512, eps=1e-06, affine=True)
        (dropout): Dropout(p=0.0, inplace=True)
        (conv2): Conv2d(512, 512, kernel_size=(3, 3), stride=(1, 1), padding=(1, 1))
      )
      (attn_1): AttnBlock(
        (norm): GroupNorm(32, 512, eps=1e-06, affine=True)
        (q): Conv2d(512, 512, kernel_size=(1, 1), stride=(1, 1))
        (k): Conv2d(512, 512, kernel_size=(1, 1), stride=(1, 1))
        (v): Conv2d(512, 512, kernel_size=(1, 1), stride=(1, 1))
        (proj_out): Conv2d(512, 512, kernel_size=(1, 1), stride=(1, 1))
      )
      (block_2): ResnetBlock(
        (swish): SiLU(inplace=True)
        (norm1): GroupNorm(32, 512, eps=1e-06, affine=True)
        (conv1): Conv2d(512, 512, kernel_size=(3, 3), stride=(1, 1), padding=(1, 1))
        (norm2): GroupNorm(32, 512, eps=1e-06, affine=True)
        (dropout): Dropout(p=0.0, inplace=True)
        (conv2): Conv2d(512, 512, kernel_size=(3, 3), stride=(1, 1), padding=(1, 1))
      )
    )
    (up): ModuleList(
      (0): Module(
        (block): ModuleList(
          (0): ResnetBlock(
            (swish): SiLU(inplace=True)
            (norm1): GroupNorm(32, 256, eps=1e-06, affine=True)
            (conv1): Conv2d(256, 128, kernel_size=(3, 3), stride=(1, 1), padding=(1, 1))
            (norm2): GroupNorm(32, 128, eps=1e-06, affine=True)
            (dropout): Dropout(p=0.0, inplace=True)
            (conv2): Conv2d(128, 128, kernel_size=(3, 3), stride=(1, 1), padding=(1, 1))
            (nin_shortcut): Conv2d(256, 128, kernel_size=(1, 1), stride=(1, 1))
          )
          (1-2): 2 x ResnetBlock(
            (swish): SiLU(inplace=True)
            (norm1): GroupNorm(32, 128, eps=1e-06, affine=True)
            (conv1): Conv2d(128, 128, kernel_size=(3, 3), stride=(1, 1), padding=(1, 1))
            (norm2): GroupNorm(32, 128, eps=1e-06, affine=True)
            (dropout): Dropout(p=0.0, inplace=True)
            (conv2): Conv2d(128, 128, kernel_size=(3, 3), stride=(1, 1), padding=(1, 1))
          )
        )
        (attn): ModuleList()
      )
      (1): Module(
        (block): ModuleList(
          (0): ResnetBlock(
            (swish): SiLU(inplace=True)
            (norm1): GroupNorm(32, 512, eps=1e-06, affine=True)
            (conv1): Conv2d(512, 256, kernel_size=(3, 3), stride=(1, 1), padding=(1, 1))
            (norm2): GroupNorm(32, 256, eps=1e-06, affine=True)
            (dropout): Dropout(p=0.0, inplace=True)
            (conv2): Conv2d(256, 256, kernel_size=(3, 3), stride=(1, 1), padding=(1, 1))
            (nin_shortcut): Conv2d(512, 256, kernel_size=(1, 1), stride=(1, 1))
          )
          (1-2): 2 x ResnetBlock(
            (swish): SiLU(inplace=True)
            (norm1): GroupNorm(32, 256, eps=1e-06, affine=True)
            (conv1): Conv2d(256, 256, kernel_size=(3, 3), stride=(1, 1), padding=(1, 1))
            (norm2): GroupNorm(32, 256, eps=1e-06, affine=True)
            (dropout): Dropout(p=0.0, inplace=True)
            (conv2): Conv2d(256, 256, kernel_size=(3, 3), stride=(1, 1), padding=(1, 1))
          )
        )
        (attn): ModuleList()
        (upsample): Upsample(
          (conv): Conv2d(256, 256, kernel_size=(3, 3), stride=(1, 1), padding=(1, 1))
        )
      )
      (2-3): 2 x Module(
        (block): ModuleList(
          (0-2): 3 x ResnetBlock(
            (swish): SiLU(inplace=True)
            (norm1): GroupNorm(32, 512, eps=1e-06, affine=True)
            (conv1): Conv2d(512, 512, kernel_size=(3, 3), stride=(1, 1), padding=(1, 1))
            (norm2): GroupNorm(32, 512, eps=1e-06, affine=True)
            (dropout): Dropout(p=0.0, inplace=True)
            (conv2): Conv2d(512, 512, kernel_size=(3, 3), stride=(1, 1), padding=(1, 1))
          )
        )
        (attn): ModuleList()
        (upsample): Upsample(
          (conv): Conv2d(512, 512, kernel_size=(3, 3), stride=(1, 1), padding=(1, 1))
        )
      )
    )
    (norm_out): GroupNorm(32, 128, eps=1e-06, affine=True)
    (conv_out): Conv2d(128, 3, kernel_size=(3, 3), stride=(1, 1), padding=(1, 1))
  )
  (regularization): DiagonalGaussianRegularizer()
  (quant_conv): Conv2d(8, 8, kernel_size=(1, 1), stride=(1, 1))
  (post_quant_conv): Conv2d(4, 4, kernel_size=(1, 1), stride=(1, 1))
), 'device': device(type='cuda', index=0), 'vae_dtype': torch.bfloat16, 'output_device': device(type='cpu'), 'patcher': <comfy.model_patcher.ModelPatcher object at 0x7f0fd66f56a0>}
